…
Skipping registering GPU devices...
2022-12-11 08:09:18.112379: I tensorflow/core/platform/cpu_feature_guard.cc:151] This TensorFlow binary is optimized with oneAPI Deep Neural Network Library (oneDNN) to use the following CPU instructions in performance-critical operations:  AVX AVX2
To enable them in other operations, rebuild TensorFlow with the appropriate compiler flags.
Model: "sequential"
_________________________________________________________________
 Layer (type)                Output Shape              Param #
=================================================================
 conv1d (Conv1D)             (None, 5624, 32)          96

 dense (Dense)               (None, 5624, 32)          1056

 max_pooling1d (MaxPooling1D  (None, 2812, 32)         0
 )

 flatten (Flatten)           (None, 89984)             0

 dense_1 (Dense)             (None, 128)               11518080

 dense_2 (Dense)             (None, 2)                 258

=================================================================
Total params: 11,519,490
Trainable params: 11,519,490
Non-trainable params: 0
_________________________________________________________________
None
{'loss': [0.5449101328849792], 'accuracy': [0.778124988079071]}
[0.778124988079071]
[0 1 1 0 1 1 0 0 1 0 1 1 0 0 1 0 0 0 0 0 1 1 1 0 1 1 0 0 1 0 0 1 0 1 1 1 0
 1 1 1 1 0 1 1 1 0 0 1 1 0 0 1 1 0 0 1 0 1 0 1 1 1 1 0 0 0 0 0 0 1 1 0 0 0
…
       False       1.00      1.00      1.00       196
        True       1.00      1.00      1.00       204

    accuracy                           1.00       400
   macro avg       1.00      1.00      1.00       400
weighted avg       1.00      1.00      1.00       400

CNN Confusion Matrix:
[[196   0]
 [  0 204]]
Time to prepare CNN:
13.003663778305054
Model: "sequential_1"
_________________________________________________________________
 Layer (type)                Output Shape              Param #
=================================================================
 dense_3 (Dense)             (None, 5625, 32)          64

 max_pooling1d_1 (MaxPooling  (None, 2812, 32)         0
 1D)

 flatten_1 (Flatten)         (None, 89984)             0

 dense_4 (Dense)             (None, 128)               11518080

 dense_5 (Dense)             (None, 2)                 258

=================================================================
Total params: 11,518,402
Trainable params: 11,518,402
Non-trainable params: 0
_________________________________________________________________
None
{'loss': [0.4822481572628021], 'accuracy': [0.8199999928474426]}
[0.8199999928474426]
[0 1 1 0 1 1 0 0 1 0 1 1 0 0 1 0 0 0 0 0 1 1 1 0 1 1 0 0 1 0 0 1 0 1 1 1 0
 1 1 1 1 0 1 1 1 0 0 1 1 0 0 1 1 0 0 1 0 1 0 1 1 1 1 0 0 0 0 0 0 1 1 0 0 0
…
